…
2025-04-27 17:39:17,543 [INFO ] Data is saved to: /home/andrei/Documents/visualSCode/aml-andrei/data/Small_HI/data.pt
2025-04-27 17:39:17,544 [INFO ] Retrieved data in 133.21s
2025-04-27 17:39:17,545 [INFO ] Running Training
2025-04-27 17:39:18,150 [INFO ] +--------------------------------+----------------------------------------+---------------------------+----------+
| Layer                          | Input Shape                            | Output Shape              | #Param   |
|--------------------------------+----------------------------------------+---------------------------+----------|
| MPNN                           | [29275, 29275]                         | [184397, 2]               | 28,917   |
| ├─(node_emb)Linear             | [29275, 1]                             | [29275, 20]               | 40       |
| ├─(edge_emb)Linear             | [184397, 4]                            | [184397, 20]              | 100      |
| ├─(gnn)GnnHelper               | [29275, 20], [2, 184397], [184397, 20] | [29275, 20], [184397, 20] | 24,400   |
| │    └─(convs)ModuleList       | --                                     | --                        | 24,320   |
| │    │    └─(0)PNAConv         | [29275, 20], [2, 184397], [184397, 20] | [29275, 20]               | 12,160   |
| │    │    └─(1)PNAConv         | [29275, 20], [2, 184397], [184397, 20] | [29275, 20]               | 12,160   |
| │    └─(emlps)ModuleList       | --                                     | --                        | --       |
| │    └─(batch_norms)ModuleList | --                                     | --                        | 80       |
| │    │    └─(0)BatchNorm       | [29275, 20]                            | [29275, 20]               | 40       |
| │    │    └─(1)BatchNorm       | [29275, 20]                            | [29275, 20]               | 40       |
| ├─(mlp)Sequential              | [184397, 60]                           | [184397, 2]               | 4,377    |
| │    └─(0)Linear               | [184397, 60]                           | [184397, 50]              | 3,050    |
| │    └─(1)ReLU                 | [184397, 50]                           | [184397, 50]              | --       |
| │    └─(2)Dropout              | [184397, 50]                           | [184397, 50]              | --       |
| │    └─(3)Linear               | [184397, 50]                           | [184397, 25]              | 1,275    |
| │    └─(4)ReLU                 | [184397, 25]                           | [184397, 25]              | --       |
| │    └─(5)Dropout              | [184397, 25]                           | [184397, 25]              | --       |
| │    └─(6)Linear               | [184397, 25]                           | [184397, 2]               | 52       |
+--------------------------------+----------------------------------------+---------------------------+----------+
2025-04-27 17:39:18,150 [INFO ] ****** EPOCH 0 ******
2025-04-27 17:44:56,573 [INFO ] {'Train': {'F1': '0.0019', 'Precision': '0.0011', 'Recall': '0.0067', 'PR-AUC': '0.0019'}}
2025-04-27 17:46:20,216 [INFO ] {'Val': {'F1': '0.0000', 'Precision': '0.0000', 'Recall': '0.0000', 'PR-AUC': '0.0593'}}
…
